_________________________________________________________________
Layer (type)                 Output Shape              Param #   
=================================================================
dense_111 (Dense)            (None, 128)               100480    
_________________________________________________________________
dense_112 (Dense)            (None, 128)               16512     
_________________________________________________________________
dense_113 (Dense)            (None, 128)               16512     
_________________________________________________________________
dense_114 (Dense)            (None, 128)               16512     
_________________________________________________________________
dense_115 (Dense)            (None, 128)               16512     
_________________________________________________________________
dense_116 (Dense)            (None, 128)               16512     
_________________________________________________________________
dense_117 (Dense)            (None, 128)               16512     
_________________________________________________________________
dense_118 (Dense)            (None, 128)               16512     
_________________________________________________________________
dense_119 (Dense)            (None, 10)                1290      
=================================================================
Total params: 217,354
Trainable params: 217,354
Non-trainable params: 0
_________________________________________________________________
None
