_________________________________________________________________
Layer (type)                 Output Shape              Param #   
=================================================================
dense_51 (Dense)             (None, 1024)              803840    
_________________________________________________________________
dense_52 (Dense)             (None, 1024)              1049600   
_________________________________________________________________
dense_53 (Dense)             (None, 1024)              1049600   
_________________________________________________________________
dense_54 (Dense)             (None, 1024)              1049600   
_________________________________________________________________
dense_55 (Dense)             (None, 1024)              1049600   
_________________________________________________________________
dense_56 (Dense)             (None, 1024)              1049600   
_________________________________________________________________
dense_57 (Dense)             (None, 1024)              1049600   
_________________________________________________________________
dense_58 (Dense)             (None, 1024)              1049600   
_________________________________________________________________
dense_59 (Dense)             (None, 10)                10250     
=================================================================
Total params: 8,161,290
Trainable params: 8,161,290
Non-trainable params: 0
_________________________________________________________________
None
