_________________________________________________________________
Layer (type)                 Output Shape              Param #   
=================================================================
dense_69 (Dense)             (None, 16)                12560     
_________________________________________________________________
dense_70 (Dense)             (None, 16)                272       
_________________________________________________________________
dense_71 (Dense)             (None, 16)                272       
_________________________________________________________________
dense_72 (Dense)             (None, 16)                272       
_________________________________________________________________
dense_73 (Dense)             (None, 16)                272       
_________________________________________________________________
dense_74 (Dense)             (None, 16)                272       
_________________________________________________________________
dense_75 (Dense)             (None, 10)                170       
=================================================================
Total params: 14,090
Trainable params: 14,090
Non-trainable params: 0
_________________________________________________________________
None
