_________________________________________________________________
Layer (type)                 Output Shape              Param #   
=================================================================
dense_104 (Dense)            (None, 128)               100480    
_________________________________________________________________
dense_105 (Dense)            (None, 128)               16512     
_________________________________________________________________
dense_106 (Dense)            (None, 128)               16512     
_________________________________________________________________
dense_107 (Dense)            (None, 128)               16512     
_________________________________________________________________
dense_108 (Dense)            (None, 128)               16512     
_________________________________________________________________
dense_109 (Dense)            (None, 128)               16512     
_________________________________________________________________
dense_110 (Dense)            (None, 10)                1290      
=================================================================
Total params: 184,330
Trainable params: 184,330
Non-trainable params: 0
_________________________________________________________________
None
