_________________________________________________________________
Layer (type)                 Output Shape              Param #   
=================================================================
dense_25 (Dense)             (None, 512)               401920    
_________________________________________________________________
dense_26 (Dense)             (None, 512)               262656    
_________________________________________________________________
dense_27 (Dense)             (None, 512)               262656    
_________________________________________________________________
dense_28 (Dense)             (None, 512)               262656    
_________________________________________________________________
dense_29 (Dense)             (None, 512)               262656    
_________________________________________________________________
dense_30 (Dense)             (None, 512)               262656    
_________________________________________________________________
dense_31 (Dense)             (None, 512)               262656    
_________________________________________________________________
dense_32 (Dense)             (None, 512)               262656    
_________________________________________________________________
dense_33 (Dense)             (None, 512)               262656    
_________________________________________________________________
dense_34 (Dense)             (None, 512)               262656    
_________________________________________________________________
dense_35 (Dense)             (None, 10)                5130      
=================================================================
Total params: 2,770,954
Trainable params: 2,770,954
Non-trainable params: 0
_________________________________________________________________
None
