_________________________________________________________________
Layer (type)                 Output Shape              Param #   
=================================================================
dense_44 (Dense)             (None, 1024)              803840    
_________________________________________________________________
dense_45 (Dense)             (None, 1024)              1049600   
_________________________________________________________________
dense_46 (Dense)             (None, 1024)              1049600   
_________________________________________________________________
dense_47 (Dense)             (None, 1024)              1049600   
_________________________________________________________________
dense_48 (Dense)             (None, 1024)              1049600   
_________________________________________________________________
dense_49 (Dense)             (None, 1024)              1049600   
_________________________________________________________________
dense_50 (Dense)             (None, 10)                10250     
=================================================================
Total params: 6,062,090
Trainable params: 6,062,090
Non-trainable params: 0
_________________________________________________________________
None
