_________________________________________________________________
Layer (type)                 Output Shape              Param #   
=================================================================
dense_4 (Dense)              (None, 512)               401920    
_________________________________________________________________
dense_5 (Dense)              (None, 512)               262656    
_________________________________________________________________
dense_6 (Dense)              (None, 512)               262656    
_________________________________________________________________
dense_7 (Dense)              (None, 512)               262656    
_________________________________________________________________
dense_8 (Dense)              (None, 10)                5130      
=================================================================
Total params: 1,195,018
Trainable params: 1,195,018
Non-trainable params: 0
_________________________________________________________________
None
