_________________________________________________________________
Layer (type)                 Output Shape              Param #   
=================================================================
dense_9 (Dense)              (None, 512)               401920    
_________________________________________________________________
dense_10 (Dense)             (None, 512)               262656    
_________________________________________________________________
dense_11 (Dense)             (None, 512)               262656    
_________________________________________________________________
dense_12 (Dense)             (None, 512)               262656    
_________________________________________________________________
dense_13 (Dense)             (None, 512)               262656    
_________________________________________________________________
dense_14 (Dense)             (None, 512)               262656    
_________________________________________________________________
dense_15 (Dense)             (None, 10)                5130      
=================================================================
Total params: 1,720,330
Trainable params: 1,720,330
Non-trainable params: 0
_________________________________________________________________
None
