_________________________________________________________________
Layer (type)                 Output Shape              Param #   
=================================================================
dense_60 (Dense)             (None, 1024)              803840    
_________________________________________________________________
dense_61 (Dense)             (None, 1024)              1049600   
_________________________________________________________________
dense_62 (Dense)             (None, 1024)              1049600   
_________________________________________________________________
dense_63 (Dense)             (None, 1024)              1049600   
_________________________________________________________________
dense_64 (Dense)             (None, 1024)              1049600   
_________________________________________________________________
dense_65 (Dense)             (None, 1024)              1049600   
_________________________________________________________________
dense_66 (Dense)             (None, 1024)              1049600   
_________________________________________________________________
dense_67 (Dense)             (None, 1024)              1049600   
_________________________________________________________________
dense_68 (Dense)             (None, 1024)              1049600   
_________________________________________________________________
dense_69 (Dense)             (None, 1024)              1049600   
_________________________________________________________________
dense_70 (Dense)             (None, 10)                10250     
=================================================================
Total params: 10,260,490
Trainable params: 10,260,490
Non-trainable params: 0
_________________________________________________________________
None
