_________________________________________________________________
Layer (type)                 Output Shape              Param #   
=================================================================
dense_120 (Dense)            (None, 128)               100480    
_________________________________________________________________
dense_121 (Dense)            (None, 128)               16512     
_________________________________________________________________
dense_122 (Dense)            (None, 128)               16512     
_________________________________________________________________
dense_123 (Dense)            (None, 128)               16512     
_________________________________________________________________
dense_124 (Dense)            (None, 128)               16512     
_________________________________________________________________
dense_125 (Dense)            (None, 128)               16512     
_________________________________________________________________
dense_126 (Dense)            (None, 128)               16512     
_________________________________________________________________
dense_127 (Dense)            (None, 128)               16512     
_________________________________________________________________
dense_128 (Dense)            (None, 128)               16512     
_________________________________________________________________
dense_129 (Dense)            (None, 128)               16512     
_________________________________________________________________
dense_130 (Dense)            (None, 10)                1290      
=================================================================
Total params: 250,378
Trainable params: 250,378
Non-trainable params: 0
_________________________________________________________________
None
