_________________________________________________________________
Layer (type)                 Output Shape              Param #   
=================================================================
dense_99 (Dense)             (None, 128)               100480    
_________________________________________________________________
dense_100 (Dense)            (None, 128)               16512     
_________________________________________________________________
dense_101 (Dense)            (None, 128)               16512     
_________________________________________________________________
dense_102 (Dense)            (None, 128)               16512     
_________________________________________________________________
dense_103 (Dense)            (None, 10)                1290      
=================================================================
Total params: 151,306
Trainable params: 151,306
Non-trainable params: 0
_________________________________________________________________
None
