_________________________________________________________________
Layer (type)                 Output Shape              Param #   
=================================================================
dense_39 (Dense)             (None, 1024)              803840    
_________________________________________________________________
dense_40 (Dense)             (None, 1024)              1049600   
_________________________________________________________________
dense_41 (Dense)             (None, 1024)              1049600   
_________________________________________________________________
dense_42 (Dense)             (None, 1024)              1049600   
_________________________________________________________________
dense_43 (Dense)             (None, 10)                10250     
=================================================================
Total params: 3,962,890
Trainable params: 3,962,890
Non-trainable params: 0
_________________________________________________________________
None
