_________________________________________________________________
Layer (type)                 Output Shape              Param #   
=================================================================
dense_16 (Dense)             (None, 512)               401920    
_________________________________________________________________
dense_17 (Dense)             (None, 512)               262656    
_________________________________________________________________
dense_18 (Dense)             (None, 512)               262656    
_________________________________________________________________
dense_19 (Dense)             (None, 512)               262656    
_________________________________________________________________
dense_20 (Dense)             (None, 512)               262656    
_________________________________________________________________
dense_21 (Dense)             (None, 512)               262656    
_________________________________________________________________
dense_22 (Dense)             (None, 512)               262656    
_________________________________________________________________
dense_23 (Dense)             (None, 512)               262656    
_________________________________________________________________
dense_24 (Dense)             (None, 10)                5130      
=================================================================
Total params: 2,245,642
Trainable params: 2,245,642
Non-trainable params: 0
_________________________________________________________________
None
