_________________________________________________________________
Layer (type)                 Output Shape              Param #   
=================================================================
dense_85 (Dense)             (None, 16)                12560     
_________________________________________________________________
dense_86 (Dense)             (None, 16)                272       
_________________________________________________________________
dense_87 (Dense)             (None, 16)                272       
_________________________________________________________________
dense_88 (Dense)             (None, 16)                272       
_________________________________________________________________
dense_89 (Dense)             (None, 16)                272       
_________________________________________________________________
dense_90 (Dense)             (None, 16)                272       
_________________________________________________________________
dense_91 (Dense)             (None, 16)                272       
_________________________________________________________________
dense_92 (Dense)             (None, 16)                272       
_________________________________________________________________
dense_93 (Dense)             (None, 16)                272       
_________________________________________________________________
dense_94 (Dense)             (None, 16)                272       
_________________________________________________________________
dense_95 (Dense)             (None, 10)                170       
=================================================================
Total params: 15,178
Trainable params: 15,178
Non-trainable params: 0
_________________________________________________________________
None
