_________________________________________________________________
Layer (type)                 Output Shape              Param #   
=================================================================
dense_64 (Dense)             (None, 16)                12560     
_________________________________________________________________
dense_65 (Dense)             (None, 16)                272       
_________________________________________________________________
dense_66 (Dense)             (None, 16)                272       
_________________________________________________________________
dense_67 (Dense)             (None, 16)                272       
_________________________________________________________________
dense_68 (Dense)             (None, 10)                170       
=================================================================
Total params: 13,546
Trainable params: 13,546
Non-trainable params: 0
_________________________________________________________________
None
