_________________________________________________________________
Layer (type)                 Output Shape              Param #   
=================================================================
dense_96 (Dense)             (None, 512)               401920    
_________________________________________________________________
dense_97 (Dense)             (None, 512)               262656    
_________________________________________________________________
dense_98 (Dense)             (None, 512)               262656    
_________________________________________________________________
dense_99 (Dense)             (None, 512)               262656    
_________________________________________________________________
dense_100 (Dense)            (None, 512)               262656    
_________________________________________________________________
dense_101 (Dense)            (None, 512)               262656    
_________________________________________________________________
dense_102 (Dense)            (None, 512)               262656    
_________________________________________________________________
dense_103 (Dense)            (None, 512)               262656    
_________________________________________________________________
dense_104 (Dense)            (None, 10)                5130      
=================================================================
Total params: 2,245,642
Trainable params: 2,245,642
Non-trainable params: 0
_________________________________________________________________
None
score: 0.148488 0.974100
