_________________________________________________________________
Layer (type)                 Output Shape              Param #   
=================================================================
dense_134 (Dense)            (None, 1024)              803840    
_________________________________________________________________
dense_135 (Dense)            (None, 1024)              1049600   
_________________________________________________________________
dense_136 (Dense)            (None, 1024)              1049600   
_________________________________________________________________
dense_137 (Dense)            (None, 1024)              1049600   
_________________________________________________________________
dense_138 (Dense)            (None, 10)                10250     
=================================================================
Total params: 3,962,890
Trainable params: 3,962,890
Non-trainable params: 0
_________________________________________________________________
None
score: 8.640428 0.110900
