_________________________________________________________________
Layer (type)                 Output Shape              Param #   
=================================================================
dense_28 (Dense)             (None, 1024)              803840    
_________________________________________________________________
dense_29 (Dense)             (None, 1024)              1049600   
_________________________________________________________________
dense_30 (Dense)             (None, 1024)              1049600   
_________________________________________________________________
dense_31 (Dense)             (None, 1024)              1049600   
_________________________________________________________________
dense_32 (Dense)             (None, 1024)              1049600   
_________________________________________________________________
dense_33 (Dense)             (None, 1024)              1049600   
_________________________________________________________________
dense_34 (Dense)             (None, 1024)              1049600   
_________________________________________________________________
dense_35 (Dense)             (None, 1024)              1049600   
_________________________________________________________________
dense_36 (Dense)             (None, 10)                10250     
=================================================================
Total params: 8,161,290
Trainable params: 8,161,290
Non-trainable params: 0
_________________________________________________________________
None
score: 0.259035 0.970800
