_________________________________________________________________
Layer (type)                 Output Shape              Param #   
=================================================================
dense_122 (Dense)            (None, 512)               401920    
_________________________________________________________________
dense_123 (Dense)            (None, 512)               262656    
_________________________________________________________________
dense_124 (Dense)            (None, 512)               262656    
_________________________________________________________________
dense_125 (Dense)            (None, 512)               262656    
_________________________________________________________________
dense_126 (Dense)            (None, 512)               262656    
_________________________________________________________________
dense_127 (Dense)            (None, 512)               262656    
_________________________________________________________________
dense_128 (Dense)            (None, 512)               262656    
_________________________________________________________________
dense_129 (Dense)            (None, 512)               262656    
_________________________________________________________________
dense_130 (Dense)            (None, 10)                5130      
=================================================================
Total params: 2,245,642
Trainable params: 2,245,642
Non-trainable params: 0
_________________________________________________________________
None
score: 11.874244 0.093800
