_________________________________________________________________
Layer (type)                 Output Shape              Param #   
=================================================================
dense_210 (Dense)            (None, 1024)              803840    
_________________________________________________________________
dense_211 (Dense)            (None, 1024)              1049600   
_________________________________________________________________
dense_212 (Dense)            (None, 1024)              1049600   
_________________________________________________________________
dense_213 (Dense)            (None, 1024)              1049600   
_________________________________________________________________
dense_214 (Dense)            (None, 10)                10250     
=================================================================
Total params: 3,962,890
Trainable params: 3,962,890
Non-trainable params: 0
_________________________________________________________________
None
score: 0.182516 0.974000
