_________________________________________________________________
Layer (type)                 Output Shape              Param #   
=================================================================
dense_108 (Dense)            (None, 1024)              803840    
_________________________________________________________________
dense_109 (Dense)            (None, 1024)              1049600   
_________________________________________________________________
dense_110 (Dense)            (None, 1024)              1049600   
_________________________________________________________________
dense_111 (Dense)            (None, 1024)              1049600   
_________________________________________________________________
dense_112 (Dense)            (None, 10)                10250     
=================================================================
Total params: 3,962,890
Trainable params: 3,962,890
Non-trainable params: 0
_________________________________________________________________
None
score: 0.085857 0.980100
