_________________________________________________________________
Layer (type)                 Output Shape              Param #   
=================================================================
dense_83 (Dense)             (None, 1024)              803840    
_________________________________________________________________
dense_84 (Dense)             (None, 1024)              1049600   
_________________________________________________________________
dense_85 (Dense)             (None, 1024)              1049600   
_________________________________________________________________
dense_86 (Dense)             (None, 1024)              1049600   
_________________________________________________________________
dense_87 (Dense)             (None, 10)                10250     
=================================================================
Total params: 3,962,890
Trainable params: 3,962,890
Non-trainable params: 0
_________________________________________________________________
None
score: 0.228531 0.967600
