_________________________________________________________________
Layer (type)                 Output Shape              Param #   
=================================================================
dense_113 (Dense)            (None, 1024)              803840    
_________________________________________________________________
dense_114 (Dense)            (None, 1024)              1049600   
_________________________________________________________________
dense_115 (Dense)            (None, 1024)              1049600   
_________________________________________________________________
dense_116 (Dense)            (None, 1024)              1049600   
_________________________________________________________________
dense_117 (Dense)            (None, 1024)              1049600   
_________________________________________________________________
dense_118 (Dense)            (None, 1024)              1049600   
_________________________________________________________________
dense_119 (Dense)            (None, 1024)              1049600   
_________________________________________________________________
dense_120 (Dense)            (None, 1024)              1049600   
_________________________________________________________________
dense_121 (Dense)            (None, 10)                10250     
=================================================================
Total params: 8,161,290
Trainable params: 8,161,290
Non-trainable params: 0
_________________________________________________________________
None
score: 0.129605 0.977000
