_________________________________________________________________
Layer (type)                 Output Shape              Param #   
=================================================================
dense_66 (Dense)             (None, 512)               401920    
_________________________________________________________________
dense_67 (Dense)             (None, 512)               262656    
_________________________________________________________________
dense_68 (Dense)             (None, 512)               262656    
_________________________________________________________________
dense_69 (Dense)             (None, 512)               262656    
_________________________________________________________________
dense_70 (Dense)             (None, 10)                5130      
=================================================================
Total params: 1,195,018
Trainable params: 1,195,018
Non-trainable params: 0
_________________________________________________________________
None
score: 0.494139 0.944200
