_________________________________________________________________
Layer (type)                 Output Shape              Param #   
=================================================================
dense_100 (Dense)            (None, 16)                12560     
_________________________________________________________________
dense_101 (Dense)            (None, 16)                272       
_________________________________________________________________
dense_102 (Dense)            (None, 16)                272       
_________________________________________________________________
dense_103 (Dense)            (None, 16)                272       
_________________________________________________________________
dense_104 (Dense)            (None, 10)                170       
=================================================================
Total params: 13,546
Trainable params: 13,546
Non-trainable params: 0
_________________________________________________________________
None
score: 2.699244 0.112700
