_________________________________________________________________
Layer (type)                 Output Shape              Param #   
=================================================================
dense_142 (Dense)            (None, 512)               401920    
_________________________________________________________________
dense_143 (Dense)            (None, 512)               262656    
_________________________________________________________________
dense_144 (Dense)            (None, 512)               262656    
_________________________________________________________________
dense_145 (Dense)            (None, 512)               262656    
_________________________________________________________________
dense_146 (Dense)            (None, 10)                5130      
=================================================================
Total params: 1,195,018
Trainable params: 1,195,018
Non-trainable params: 0
_________________________________________________________________
None
score: 0.164528 0.972600
