_________________________________________________________________
Layer (type)                 Output Shape              Param #   
=================================================================
dense_79 (Dense)             (None, 16)                12560     
_________________________________________________________________
dense_80 (Dense)             (None, 16)                272       
_________________________________________________________________
dense_81 (Dense)             (None, 16)                272       
_________________________________________________________________
dense_82 (Dense)             (None, 16)                272       
_________________________________________________________________
dense_83 (Dense)             (None, 16)                272       
_________________________________________________________________
dense_84 (Dense)             (None, 16)                272       
_________________________________________________________________
dense_85 (Dense)             (None, 16)                272       
_________________________________________________________________
dense_86 (Dense)             (None, 16)                272       
_________________________________________________________________
dense_87 (Dense)             (None, 10)                170       
=================================================================
Total params: 14,634
Trainable params: 14,634
Non-trainable params: 0
_________________________________________________________________
None
score: 0.262081 0.944100
