_________________________________________________________________
Layer (type)                 Output Shape              Param #   
=================================================================
dense_91 (Dense)             (None, 512)               401920    
_________________________________________________________________
dense_92 (Dense)             (None, 512)               262656    
_________________________________________________________________
dense_93 (Dense)             (None, 512)               262656    
_________________________________________________________________
dense_94 (Dense)             (None, 512)               262656    
_________________________________________________________________
dense_95 (Dense)             (None, 10)                5130      
=================================================================
Total params: 1,195,018
Trainable params: 1,195,018
Non-trainable params: 0
_________________________________________________________________
None
score: 0.082780 0.978700
