_________________________________________________________________
Layer (type)                 Output Shape              Param #   
=================================================================
dense_176 (Dense)            (None, 16)                12560     
_________________________________________________________________
dense_177 (Dense)            (None, 16)                272       
_________________________________________________________________
dense_178 (Dense)            (None, 16)                272       
_________________________________________________________________
dense_179 (Dense)            (None, 16)                272       
_________________________________________________________________
dense_180 (Dense)            (None, 10)                170       
=================================================================
Total params: 13,546
Trainable params: 13,546
Non-trainable params: 0
_________________________________________________________________
None
score: 0.244328 0.942100
