_________________________________________________________________
Layer (type)                 Output Shape              Param #   
=================================================================
dense_74 (Dense)             (None, 16)                12560     
_________________________________________________________________
dense_75 (Dense)             (None, 16)                272       
_________________________________________________________________
dense_76 (Dense)             (None, 16)                272       
_________________________________________________________________
dense_77 (Dense)             (None, 16)                272       
_________________________________________________________________
dense_78 (Dense)             (None, 10)                170       
=================================================================
Total params: 13,546
Trainable params: 13,546
Non-trainable params: 0
_________________________________________________________________
None
score: 0.166517 0.954900
