_________________________________________________________________
Layer (type)                 Output Shape              Param #   
=================================================================
dense_130 (Dense)            (None, 16)                12560     
_________________________________________________________________
dense_131 (Dense)            (None, 16)                272       
_________________________________________________________________
dense_132 (Dense)            (None, 16)                272       
_________________________________________________________________
dense_133 (Dense)            (None, 16)                272       
_________________________________________________________________
dense_134 (Dense)            (None, 16)                272       
_________________________________________________________________
dense_135 (Dense)            (None, 16)                272       
_________________________________________________________________
dense_136 (Dense)            (None, 16)                272       
_________________________________________________________________
dense_137 (Dense)            (None, 16)                272       
_________________________________________________________________
dense_138 (Dense)            (None, 10)                170       
=================================================================
Total params: 14,634
Trainable params: 14,634
Non-trainable params: 0
_________________________________________________________________
None
score: 0.321753 0.925500
