_________________________________________________________________
Layer (type)                 Output Shape              Param #   
=================================================================
dense_198 (Dense)            (None, 512)               401920    
_________________________________________________________________
dense_199 (Dense)            (None, 512)               262656    
_________________________________________________________________
dense_200 (Dense)            (None, 512)               262656    
_________________________________________________________________
dense_201 (Dense)            (None, 512)               262656    
_________________________________________________________________
dense_202 (Dense)            (None, 512)               262656    
_________________________________________________________________
dense_203 (Dense)            (None, 512)               262656    
_________________________________________________________________
dense_204 (Dense)            (None, 512)               262656    
_________________________________________________________________
dense_205 (Dense)            (None, 512)               262656    
_________________________________________________________________
dense_206 (Dense)            (None, 10)                5130      
=================================================================
Total params: 2,245,642
Trainable params: 2,245,642
Non-trainable params: 0
_________________________________________________________________
None
score: 0.312780 0.965500
