_________________________________________________________________
Layer (type)                 Output Shape              Param #   
=================================================================
dense_164 (Dense)            (None, 1024)              803840    
_________________________________________________________________
dense_165 (Dense)            (None, 1024)              1049600   
_________________________________________________________________
dense_166 (Dense)            (None, 1024)              1049600   
_________________________________________________________________
dense_167 (Dense)            (None, 1024)              1049600   
_________________________________________________________________
dense_168 (Dense)            (None, 1024)              1049600   
_________________________________________________________________
dense_169 (Dense)            (None, 1024)              1049600   
_________________________________________________________________
dense_170 (Dense)            (None, 1024)              1049600   
_________________________________________________________________
dense_171 (Dense)            (None, 1024)              1049600   
_________________________________________________________________
dense_172 (Dense)            (None, 10)                10250     
=================================================================
Total params: 8,161,290
Trainable params: 8,161,290
Non-trainable params: 0
_________________________________________________________________
None
score: 0.202925 0.973200
