_________________________________________________________________
Layer (type)                 Output Shape              Param #   
=================================================================
dense_105 (Dense)            (None, 16)                12560     
_________________________________________________________________
dense_106 (Dense)            (None, 16)                272       
_________________________________________________________________
dense_107 (Dense)            (None, 16)                272       
_________________________________________________________________
dense_108 (Dense)            (None, 16)                272       
_________________________________________________________________
dense_109 (Dense)            (None, 16)                272       
_________________________________________________________________
dense_110 (Dense)            (None, 16)                272       
_________________________________________________________________
dense_111 (Dense)            (None, 16)                272       
_________________________________________________________________
dense_112 (Dense)            (None, 16)                272       
_________________________________________________________________
dense_113 (Dense)            (None, 10)                170       
=================================================================
Total params: 14,634
Trainable params: 14,634
Non-trainable params: 0
_________________________________________________________________
None
score: 2.439837 0.079000
