_________________________________________________________________
Layer (type)                 Output Shape              Param #   
=================================================================
dense_49 (Dense)             (None, 16)                12560     
_________________________________________________________________
dense_50 (Dense)             (None, 16)                272       
_________________________________________________________________
dense_51 (Dense)             (None, 16)                272       
_________________________________________________________________
dense_52 (Dense)             (None, 16)                272       
_________________________________________________________________
dense_53 (Dense)             (None, 10)                170       
=================================================================
Total params: 13,546
Trainable params: 13,546
Non-trainable params: 0
_________________________________________________________________
None
score: 0.282420 0.929600
