_________________________________________________________________
Layer (type)                 Output Shape              Param #   
=================================================================
dense_125 (Dense)            (None, 16)                12560     
_________________________________________________________________
dense_126 (Dense)            (None, 16)                272       
_________________________________________________________________
dense_127 (Dense)            (None, 16)                272       
_________________________________________________________________
dense_128 (Dense)            (None, 16)                272       
_________________________________________________________________
dense_129 (Dense)            (None, 10)                170       
=================================================================
Total params: 13,546
Trainable params: 13,546
Non-trainable params: 0
_________________________________________________________________
None
score: 0.211187 0.945400
