_________________________________________________________________
Layer (type)                 Output Shape              Param #   
=================================================================
dense_117 (Dense)            (None, 512)               401920    
_________________________________________________________________
dense_118 (Dense)            (None, 512)               262656    
_________________________________________________________________
dense_119 (Dense)            (None, 512)               262656    
_________________________________________________________________
dense_120 (Dense)            (None, 512)               262656    
_________________________________________________________________
dense_121 (Dense)            (None, 10)                5130      
=================================================================
Total params: 1,195,018
Trainable params: 1,195,018
Non-trainable params: 0
_________________________________________________________________
None
score: 10.977440 0.072500
