_________________________________________________________________
Layer (type)                 Output Shape              Param #   
=================================================================
dense_181 (Dense)            (None, 16)                12560     
_________________________________________________________________
dense_182 (Dense)            (None, 16)                272       
_________________________________________________________________
dense_183 (Dense)            (None, 16)                272       
_________________________________________________________________
dense_184 (Dense)            (None, 16)                272       
_________________________________________________________________
dense_185 (Dense)            (None, 16)                272       
_________________________________________________________________
dense_186 (Dense)            (None, 16)                272       
_________________________________________________________________
dense_187 (Dense)            (None, 16)                272       
_________________________________________________________________
dense_188 (Dense)            (None, 16)                272       
_________________________________________________________________
dense_189 (Dense)            (None, 10)                170       
=================================================================
Total params: 14,634
Trainable params: 14,634
Non-trainable params: 0
_________________________________________________________________
None
score: 0.350557 0.928400
