_________________________________________________________________
Layer (type)                 Output Shape              Param #   
=================================================================
dense_88 (Dense)             (None, 1024)              803840    
_________________________________________________________________
dense_89 (Dense)             (None, 1024)              1049600   
_________________________________________________________________
dense_90 (Dense)             (None, 1024)              1049600   
_________________________________________________________________
dense_91 (Dense)             (None, 1024)              1049600   
_________________________________________________________________
dense_92 (Dense)             (None, 1024)              1049600   
_________________________________________________________________
dense_93 (Dense)             (None, 1024)              1049600   
_________________________________________________________________
dense_94 (Dense)             (None, 1024)              1049600   
_________________________________________________________________
dense_95 (Dense)             (None, 1024)              1049600   
_________________________________________________________________
dense_96 (Dense)             (None, 10)                10250     
=================================================================
Total params: 8,161,290
Trainable params: 8,161,290
Non-trainable params: 0
_________________________________________________________________
None
score: 0.474916 0.950600
