_________________________________________________________________
Layer (type)                 Output Shape              Param #   
=================================================================
dense_147 (Dense)            (None, 512)               401920    
_________________________________________________________________
dense_148 (Dense)            (None, 512)               262656    
_________________________________________________________________
dense_149 (Dense)            (None, 512)               262656    
_________________________________________________________________
dense_150 (Dense)            (None, 512)               262656    
_________________________________________________________________
dense_151 (Dense)            (None, 512)               262656    
_________________________________________________________________
dense_152 (Dense)            (None, 512)               262656    
_________________________________________________________________
dense_153 (Dense)            (None, 512)               262656    
_________________________________________________________________
dense_154 (Dense)            (None, 512)               262656    
_________________________________________________________________
dense_155 (Dense)            (None, 10)                5130      
=================================================================
Total params: 2,245,642
Trainable params: 2,245,642
Non-trainable params: 0
_________________________________________________________________
None
score: 0.257731 0.971000
