_________________________________________________________________
Layer (type)                 Output Shape              Param #   
=================================================================
dense_193 (Dense)            (None, 512)               401920    
_________________________________________________________________
dense_194 (Dense)            (None, 512)               262656    
_________________________________________________________________
dense_195 (Dense)            (None, 512)               262656    
_________________________________________________________________
dense_196 (Dense)            (None, 512)               262656    
_________________________________________________________________
dense_197 (Dense)            (None, 10)                5130      
=================================================================
Total params: 1,195,018
Trainable params: 1,195,018
Non-trainable params: 0
_________________________________________________________________
None
score: 0.226453 0.969600
