_________________________________________________________________
Layer (type)                 Output Shape              Param #   
=================================================================
dense_71 (Dense)             (None, 512)               401920    
_________________________________________________________________
dense_72 (Dense)             (None, 512)               262656    
_________________________________________________________________
dense_73 (Dense)             (None, 512)               262656    
_________________________________________________________________
dense_74 (Dense)             (None, 512)               262656    
_________________________________________________________________
dense_75 (Dense)             (None, 512)               262656    
_________________________________________________________________
dense_76 (Dense)             (None, 512)               262656    
_________________________________________________________________
dense_77 (Dense)             (None, 512)               262656    
_________________________________________________________________
dense_78 (Dense)             (None, 512)               262656    
_________________________________________________________________
dense_79 (Dense)             (None, 10)                5130      
=================================================================
Total params: 2,245,642
Trainable params: 2,245,642
Non-trainable params: 0
_________________________________________________________________
None
score: 0.596621 0.945100
