_________________________________________________________________
Layer (type)                 Output Shape              Param #   
=================================================================
dense_54 (Dense)             (None, 16)                12560     
_________________________________________________________________
dense_55 (Dense)             (None, 16)                272       
_________________________________________________________________
dense_56 (Dense)             (None, 16)                272       
_________________________________________________________________
dense_57 (Dense)             (None, 16)                272       
_________________________________________________________________
dense_58 (Dense)             (None, 16)                272       
_________________________________________________________________
dense_59 (Dense)             (None, 16)                272       
_________________________________________________________________
dense_60 (Dense)             (None, 16)                272       
_________________________________________________________________
dense_61 (Dense)             (None, 16)                272       
_________________________________________________________________
dense_62 (Dense)             (None, 10)                170       
=================================================================
Total params: 14,634
Trainable params: 14,634
Non-trainable params: 0
_________________________________________________________________
None
score: 0.461077 0.903400
