_________________________________________________________________
Layer (type)                 Output Shape              Param #   
=================================================================
dense_1 (Dense)              (None, 1024)              803840    
_________________________________________________________________
dense_2 (Dense)              (None, 1024)              1049600   
_________________________________________________________________
dense_3 (Dense)              (None, 1024)              1049600   
_________________________________________________________________
dense_4 (Dense)              (None, 1024)              1049600   
_________________________________________________________________
dense_5 (Dense)              (None, 1024)              1049600   
_________________________________________________________________
dense_6 (Dense)              (None, 1024)              1049600   
_________________________________________________________________
dense_7 (Dense)              (None, 1024)              1049600   
_________________________________________________________________
dense_8 (Dense)              (None, 1024)              1049600   
_________________________________________________________________
dense_9 (Dense)              (None, 10)                10250     
=================================================================
Total params: 8,161,290
Trainable params: 8,161,290
Non-trainable params: 0
_________________________________________________________________
None
score: 10.633094 0.085800
