_________________________________________________________________
Layer (type)                 Output Shape              Param #   
=================================================================
dense_159 (Dense)            (None, 1024)              803840    
_________________________________________________________________
dense_160 (Dense)            (None, 1024)              1049600   
_________________________________________________________________
dense_161 (Dense)            (None, 1024)              1049600   
_________________________________________________________________
dense_162 (Dense)            (None, 1024)              1049600   
_________________________________________________________________
dense_163 (Dense)            (None, 10)                10250     
=================================================================
Total params: 3,962,890
Trainable params: 3,962,890
Non-trainable params: 0
_________________________________________________________________
None
score: 0.128472 0.976400
